iris_model.pt (torch, 5927 bytes, 4 tensors)

weight f4 [10, 4]
0	0x3eebc9cd	0.460524
1	0xbe4acaa8	-0.1980387
2	0x3fa5aad4	1.2942758
3	0x3f64182f	0.890994
4	0x3dc56923	0.09639194
5	0x3ebb5d4a	0.3659461
6	0xbe960453	-0.29300174
7	0xbf6c15cc	-0.9222076
8	0xbe656363	-0.22401194
9	0xbec383b3	-0.38186416
10	0x3fa8b5ea	1.3180516
11	0x3f3cefcc	0.738034
12	0xbd964292	-0.07336916
13	0xbe5e6bfb	-0.21720879
14	0x3f75eb82	0.9606248
15	0x3fa7e363	1.3116268
16	0xbec11f53	-0.3771921
17	0xbedf7c15	-0.43649355
18	0xbe93d104	-0.28870404
19	0xbece71c0	-0.4032116
20	0xbf2f4c77	-0.6847605
21	0x3c0a807a	0.008453483
22	0xbf905824	-1.1276898
23	0xbf95ba5b	-1.1697496
24	0xbe5cdccd	-0.21568604
25	0xbf47469a	-0.77842104
26	0x3cc503d8	0.024049684
27	0xbf7e7002	-0.9938966
28	0xbf42d382	-0.76103985
29	0x3f3a0645	0.72665817
30	0xbf438e02	-0.7638856
31	0xbf9e57f7	-1.2370595
32	0x3e6c6020	0.23083544
33	0xbf967116	-1.1753261
34	0x3f426004	0.7592776
35	0x3f8f0c9f	1.1175727
36	0xbf35292e	-0.7076596
37	0x3f4f27a4	0.8091986
38	0xbf4db2a4	-0.8035071
39	0xbf936a6f	-1.1516856

bias f4 [10]
0	0xbe25410b	-0.16138093
1	0x3fcda632	1.6066344
2	0xbf2d5aaa	-0.6771647
3	0xbed0212a	-0.40650302
4	0xbedd240a	-0.43191558
5	0xbefeac5e	-0.4974088
6	0x3f2c7d6b	0.6737887
7	0x3e6e7d70	0.23290038
8	0x3f9460ac	1.1592002
9	0x3e82a639	0.25517443

weight f4 [3, 10]
0	0xbf80cccb	-1.0062498
1	0x3e8b87e7	0.27252123
2	0xbd9b024f	-0.075688
3	0xbf26b136	-0.6511415
4	0xbddf5050	-0.1090399
5	0x3f3ead05	0.74482757
6	0xbe8cc42e	-0.27493423
7	0x3f09e836	0.5386995
8	0xbf79f9e5	-0.97646934
9	0x3eeb5038	0.4595964
10	0x3c1b6e0e	0.009486688
11	0x3fccd36e	1.6002023
12	0xbfe7ffe8	-1.8124971
13	0xbf120a7c	-0.5704725
14	0x3d807a17	0.06273287
15	0xbf4e0049	-0.80469185
16	0x3eb55791	0.3541837
17	0xbf36d810	-0.71423435
18	0x3f0cffdf	0.5507793
19	0xbf806b3c	-1.0032725
20	0x3f0a6baf	0.5407056
21	0xbff933e3	-1.946896
22	0x3fb08b26	1.3792465
23	0x3f3bd310	0.7336893
24	0xbcdb5c90	-0.026777536
25	0xbe7aae30	-0.2448051
26	0xbf50cf6c	-0.815665
27	0xbee1661c	-0.44023216
28	0x3f080623	0.53134364
29	0xbec12c86	-0.3772928

bias f4 [3]
0	0xbec5e821	-0.38653663
1	0x3f6a2778	0.91466475
2	0xbf26f544	-0.65217996
